…
\u003eA = 0\u003c/code\u003e and \u003ccode\u003eB = kaiming_uniform\u003c/code\u003e.\u003c/p\u003e\n\u003cp\u003eIf you take the example of llama-3-8B, here\u0026rsquo;s how the model looks like after injecting LoRA adapters of rank 8\u003c/p\u003e\n\u003cdetails\u003e\n\u003csummary\u003e \u003cb\u003e Llama 3 8B architecture with LoRA\u003c/b\u003e (click to expand) \u003chr\u003e\u003c/summary\u003e\n\u003cpre tabindex=\"0\"\u003e\u003ccode\u003e(layers): ModuleList(\n  (0-31): 32 x LlamaDecoderLayer(\n    (self_attn): LlamaSdpaAttention(\n      (q_proj): lora.Linear(\n        (base_layer): Linear(in_features=4096, out_features=4096, bias=False)\n        (lora_A): ModuleDict(\n          (default): Linear(in_features=4096, out_features=8, bias=False)\n        )\n        (lora_B): ModuleDict(\n          (default): Linear(in_features=8, out_features=4096, bias=False)\n        )\n      )\n      (k_proj): lora.Linear(\n        (base_layer): Linear(in_features=4096, out_features=1024, bias=False)\n        (lora_A): ModuleDict(\n          (default): Linear(in_features=4096, out_features=8, bias=False)\n        )\n        (lora_B): ModuleDict(\n          (default): Linear(in_features=8, out_features=1024, bias=False)\n        )\n      )\n      (v_proj): lora.Linear(\n        (base_layer): Linear(in_features=4096, out_features=1024, bias=False)\n        (lora_A): ModuleDict(\n          (default): Linear(in_features=4096, out_features=8, bias=False)\n        )\n        (lora_B): ModuleDict(\n          (default): Linear(in_features=8, out_features=1024, bias=False)\n        )\n      )\n      (o_proj): lora.Linear(\n        (base_layer): Linear(in_features=4096, out_features=4096, bias=False)\n        (lora_A): ModuleDict(\n          (default): Linear(in_features=4096, out_features=8, bias=False)\n        )\n        (lora_B): ModuleDict(\n          (default): Linear(in_features=8, out_features=4096, bias=False)\n        )\n      )\n      (rotary_emb): LlamaRotaryEmbedding()\n    )\n    (mlp): LlamaMLP(\n      (gate_proj): lora.Linear(\n        (base_layer): Linear(in_features=4096, out_features=14336, bias=False)\n        (lora_A): ModuleDict(\n          (default): Linear(in_features=4096, out_features=8, bias=False)\n        )\n        (lora_B): ModuleDict(\n          (default): Linear(in_features=8, out_features=14336, bias=False)\n        )\n      )\n      (up_proj): lora.Linear(\n        (base_layer): Linear(in_features=4096, out_features=14336, bias=False)\n        (lora_A): ModuleDict(\n          (default): Linear(in_features=4096, out_features=8, bias=False)\n        )\n        (lora_B): ModuleDict(\n          (default): Linear(in_features=8, out_features=14336, bias=False)\n        )\n      )\n      (down_proj): lora.Linear(\n        (base_layer): Linear(in_features=14336, out_features=4096, bias=False)\n        (lora_A): ModuleDict(\n          (default): Linear(in_features=14336, out_features=8, bias=False)\n        )\n        (lora_B): ModuleDict(\n          (default): Linear(in_features=8, out_features=4096, bias=False)\n        )\n      )\n    )\n  )\n)\nNote: truncated for better readability\n\u003c/code\u003e\u003c/pre\u003e\u003c/details\u003e\n\u003ch2 id=\"reversing-initialization\"\u003eReversing Initialization\u003c/h2\u003e\n\u003cp\u003eAs you see, for a given layer (0-31), LoRA A and B would have same parameters in q_proj (query matrix), k_proj (key matrix)
…
